Snake_AI/model/model.pth (torch, 16787 bytes, 4 tensors)

linear1.weight f4 [256, 11]
000000 2a 9a 5e 3e ce 32 ae bd a4 40 c2 bd 83 c3 1c 3e
       0.21738496 -0.08505784 -0.094849855 0.15308957
000010 0e 77 88 3b 99 e3 90 3c 94 79 a7 3e 5b 22 12 be
       0.004164583 0.017686652 0.32709944 -0.14270918
000020 cb 19 1e 3e 0d 27 b7 be 7c a7 68 be 75 ce 84 3e
       0.15439527 -0.3577198 -0.2272014 0.25938764
000030 0e 03 a4 3c 08 8f 4c be 00 55 69 be cc 9c 2a 3e
       0.020020988 -0.19976437 -0.22786331 0.16661376
000040 ca 36 73 3e 43 31 34 3e 08 0d 39 3e 85 1d 85 be
       0.23751369 0.17596917 0.18071377 -0.25999084
000050 96 3f 30 3e e7 9f cb bd e7 4a ca 3d 9f bb 9a 3d
       0.17211756 -0.09942608 0.09877568 0.07555317
000060 50 21 bc 3d 95 7c 86 3e 2a be 04 3c a3 45 92 bd
       0.09186041 0.26266924 0.008101979 -0.071421884
000070 4e 47 ab 3d 96 4b 4b 3d de 37 2e 3d 0b 13 93 be
       0.0836321 0.04963263 0.042533748 -0.28725466
000080 bd 7d 32 3e 89 54 4d be 90 31 bc 3d 15 82 bd 3e
       0.17430778 -0.20051779 0.09189141 0.37013307
000090 17 e0 0a 3e 5f 3c fb bd c4 b7 ed 3d a9 64 70 be
       0.13562046 -0.12267374 0.11607316 -0.23475899
0000a0 ee 12 11 3e ef 49 02 3c aa 5e 66 be e4 93 88 be
       0.14167377 0.007952197 -0.22497049 -0.26675332
0000b0 a2 e5 cf bd 3c a9 ff bd ed 20 67 be 5e d2 c6 bd
       -0.10151221 -0.12483451 -0.22571154 -0.09708093
0000c0 e2 a2 0f be 02 60 83 be 13 e9 82 be 09 75 0f be
       -0.14026979 -0.25659186 -0.25568447 -0.14009489
0000d0 60 1e 42 3e 8a 69 5b be cb 52 97 bd 68 56 86 bd
       0.189569 -0.21426979 -0.073888384 -0.065594494
0000e0 22 4b e3 3e bf 62 12 be 43 90 dd bd e9 49 d0 bc
       0.4439326 -0.14295481 -0.10818531 -0.025425868
0000f0 43 11 45 be 1e cc 4a be 29 fc 87 bd ff 4e 18 3e
       -0.19244866 -0.19804427 -0.066398926 0.14873885
000100 94 32 95 3e d6 89 db bd 8f 57 c3 bd 3d 11 d4 3e
       0.2914015 -0.107196495 -0.09538185 0.41419402
000110 81 8f fb bd bb 05 56 bd 39 86 1c bd 05 00 3d be
       -0.122832306 -0.05225156 -0.038213942 -0.18457039
000120 e5 bd c5 bd d8 75 9d 3d 16 35 90 3a 15 b0 32 be
       -0.0965536 0.076884925 0.0011002149 -0.17449982
000130 46 fe 28 be 3b 72 9c be 0a 65 80 be 0b 96 4b be
       -0.16503248 -0.305559 -0.25077087 -0.19881456
000140 a4 76 86 be fd 7d 06 be 03 c6 5d be a4 1a ac be
       -0.2626239 -0.13133998 -0.21657567 -0.33614075
000150 03 8c 92 3e 12 de 82 be e9 a6 8a 3e 88 d0 06 bd
       0.28622445 -0.2556005 0.27080467 -0.032913715
000160 a0 be a2 be a0 3b fb 3a 4b 63 3f 3e a8 0a 4b be
       -0.3178606 0.001916755 0.18690221 -0.19828284
000170 62 49 24 be cd 7c 80 3e 0f 11 27 3e 24 2e 1a be
       -0.16043618 0.25095215 0.16315101 -0.15056664
000180 14 d0 63 3d af be 3b bd 25 3d b6 bb 6b d5 8c 3e
       0.05561836 -0.045836147 -0.005561488 0.27506575
000190 b6 c1 e8 3e 93 2e a7 3e 18 44 00 3e cc 0d a2 3d
       0.4546029 0.3265272 0.12525976 0.07912788
0001a0 7b dc 8f be 3a 99 ae 3e 20 e1 68 be 4e 10 ab bd
       -0.280979 0.34101278 -0.22742128 -0.08352719
0001b0 02 85 50 3e 83 bf 73 3e 32 5d a1 be c1 2c 61 bd
       0.20363238 0.23803525 -0.31516415 -0.05497432
0001c0 1b ec 98 be 40 13 e0 bd 96 a1 20 be 46 f0 63 3e
       -0.29867634 -0.10941172 -0.1568664 0.22259626
0001d0 b5 2a 71 3d 1b 0a e6 3c 48 89 77 3e 4a 57 67 bd
       0.05887862 0.02808099 0.24173462 -0.05647973
0001e0 f3 f2 07 bc c2 13 4f be 7b b6 71 be f1 33 99 3e
       -0.00829767 -0.20222381 -0.23604767 0.2992244
0001f0 b9 ce 2f 3e dc e1 79 3e 2a 8c 90 3e cb b8 15 3e
       0.17168702 0.24402565 0.28231937 0.14621274
000200 ce ff 6b bd 19 80 6d be 73 71 1b bd aa 5a dd 3c
       -0.057617 -0.23193397 -0.03794999 0.027020771
000210 82 6a 48 3e 78 97 23 be 2a 70 b4 3e 72 b3 6e 3b
       0.1957188 -0.1597575 0.35241824 0.0036422876
000220 fb a3 dc bc ec c2 22 be 51 66 1c 3e 59 23 1a bc
       -0.02693366 -0.1589467 0.15273406 -0.009407842
000230 ea 50 a2 bc 14 3c 0b be 87 2a 06 3e 79 75 0c be
       -0.019813973 -0.13597137 0.1310216 -0.13716687
000240 1d c9 19 3e d1 87 c6 3c d0 18 90 3e c2 05 50 3e
       0.15018125 0.024234684 0.2814393 0.20314696
000250 c0 fb bc bc d7 45 14 be b2 b7 59 be d2 91 58 3d
       -0.023069263 -0.14479767 -0.2126148 0.05287344
000260 92 2f b7 bd 83 98 0d be 2c 0f 34 be a1 f4 5e bd
       -0.0894462 -0.1382771 -0.17583913 -0.054432515
000270 f6 00 ba 3e f5 11 a9 3d fa a9 38 3e eb a7 05 be
       0.36328858 0.08255378 0.18033591 -0.13052337
000280 e9 74 49 3e 95 37 93 bd 8d 30 7b 3e 5c c4 bc 3e
       0.19673504 -0.07188336 0.2453024 0.3686856
000290 3e f7 40 be 81 f7 ff bd 43 31 a3 bd cb 82 53 3e
       -0.18844315 -0.124983795 -0.0796838 0.20655362
0002a0 be 4a f4 3b 87 23 87 3e 8e 34 05 be 5b 1b f8 bd
       0.007455199 0.26394293 -0.1300833 -0.12114593
0002b0 59 d2 8a be 7f 89 66 be b1 69 27 3e 7c 7d 9c be
       -0.27113608 -0.22513388 0.16348912 -0.30564487
0002c0 59 52 60 be 30 aa c2 bd 64 73 d2 3e c0 f8 b1 bd
       -0.21906413 -0.09505117 0.4110366 -0.086900234
0002d0 4d 2b 23 be 71 96 69 bd 6b 81 95 3b 01 ef 68 3e
       -0.15934487 -0.057028238 0.004562547 0.22747423
0002e0 4d e4 98 3c 05 0c 82 3e 58 a5 94 be 9c bb ec 3c
       0.01866355 0.25399795 -0.29032397 0.028898053
0002f0 97 e3 0a be 5d 44 50 be 0d e5 86 bd 1d 52 64 3e
       -0.13563381 -0.20338579 -0.06586657 0.22296949
000300 eb 5e 38 3e d3 07 a8 bc 62 af 77 bc b6 0c fc 3d
       0.18004958 -0.020511543 -0.015117498 0.12307112
000310 94 d9 28 3e 78 a9 83 bc 3a ea 89 bd 88 91 16 bd
       0.1648925 -0.01607202 -0.06734128 -0.036759883
000320 ee 70 ed bd d5 6c 13 bd 9e e5 6d be 1a 9b 5c 3e
       -0.11593805 -0.035992462 -0.23232123 0.21543542
000330 1f cc 0a 3e 87 3f cf bd 5e 52 6a be e8 c0 4e 3e
       0.13554429 -0.10119539 -0.22882983 0.20190775
000340 b8 19 51 be af 59 90 be 2a a3 74 3e 5f 3c 09 be
       -0.20419967 -0.28193423 0.23890367 -0.13401936
000350 ab 66 ab 3e 40 29 e8 bc 3c 76 8a 3e aa 9f 62 3d
       0.33476767 -0.028339982 0.2704333 0.05532805
000360 25 16 97 3d 34 eb 6a 3e 2a 4a 9f 3e 85 8c 0c 3e
       0.073772706 0.22941285 0.3111127 0.13725479
000370 06 cb 75 bd 40 54 b6 be 54 e2 e0 3e 45 a3 18 be
       -0.06000807 -0.35611153 0.43922675 -0.14906032
000380 83 7f 9c 3e 3b 0c ea bd 3e 34 23 3e aa 65 94 3e
       0.30566034 -0.11428114 0.15937898 0.28983814
000390 17 ed e2 3d 3e f9 17 be ce b9 84 3d 90 87 40 3e
       0.110803775 -0.14841172 0.06480752 0.18801713
0003a0 38 1a 9d 3e 12 2d 61 3e 05 c5 5f 3e 5c a0 8d 3e
       0.30684066 0.21989849 0.218525 0.27661407
0003b0 1f 01 1c 3e d9 35 ae be 9c 7b 5f 3e 93 6f 9e bd
       0.15234803 -0.34025458 0.21824497 -0.07736125
0003c0 f7 26 a6 bd 6a 7f 2e be 76 f5 92 bc fd 80 ca 3e
       -0.08112901 -0.17040792 -0.01793931 0.39551535
0003d0 94 b5 ac be a5 6b a9 3d 04 bc 87 3e 0a 30 3b bb
       -0.33732283 0.08272485 0.26510632 -0.002856257
0003e0 33 de a8 3d 06 c1 09 be 95 85 3f be a4 1c c8 bc
       0.08245506 -0.13452539 -0.18703301 -0.02442772
0003f0 0c 28 6f bb 08 18 b3 3d 2b 94 3e be 1f e9 72 be
       -0.0036492376 0.08744818 -0.18611209 -0.23721741

linear1.bias f4 [256]
000000 ef ef 57 be 2f 4a ca bd 54 ff 10 3d 94 76 48 3e
       -0.21087621 -0.09877431 0.03539975 0.19576484
000010 d4 ec ca bd 6a 70 1a 3e 60 8f 99 3e a9 aa 9c be
       -0.09908453 0.15081945 0.299922 -0.30598953
000020 00 8f 0c 3d da aa 7f bd b1 ac a8 be 2f 1e b8 3d
       0.034316063 -0.062418796 -0.32944253 0.08990132
000030 c2 86 0e 3e 74 d3 c4 bd 20 d6 82 3e b1 a1 02 bd
       0.13918594 -0.09610644 0.2555399 -0.031892482
000040 e1 3c 2f 3e 40 da 26 be 53 b1 4f be 20 51 81 3e
       0.17113067 -0.16294193 -0.20282488 0.25257206
000050 19 0c fd 3d a2 8a 19 3e c0 7d 79 3e 33 54 37 be
       0.12355823 0.1499429 0.24364376 -0.17903213
000060 b3 c6 6a 3e e3 6b b6 bd 11 92 02 3e 5d 38 3c be
       0.2292736 -0.089072965 0.12751032 -0.18380876
000070 28 df 5d be d3 60 a2 3e fa ea 47 be 97 81 43 be
       -0.21667159 0.31714496 -0.1952323 -0.19092403
000080 65 e7 ae bd 1d 41 93 bd 6a 28 ab 3d 52 9e 26 be
       -0.08540229 -0.07190154 0.08357318 -0.16271332
000090 6f cf a6 3e 40 69 20 bd 08 64 5b be e4 36 8e 3d
       0.32580134 -0.039162874 -0.21424878 0.06944063
0000a0 3e 2b 96 be b9 34 c0 3e 5a ca 52 3e 46 4c 30 3e
       -0.29329866 0.37540224 0.20585003 0.17216596
0000b0 15 86 7a be 91 8d 46 be 56 8c c0 3d b1 77 1f be
       -0.2446521 -0.19389941 0.09401767 -0.15573002
0000c0 2d bc c7 bc 9d ea f3 bd 0e c7 6a 3d 92 b8 5c bd
       -0.024381721 -0.11909983 0.05731874 -0.053886957
0000d0 f1 56 e1 bd 23 e2 0d 3e 36 b1 61 3c da fa 96 3e
       -0.11002911 0.13855796 0.013775161 0.2948826
0000e0 aa 12 4e 3e 7c ea 4c bd 5c 64 1a 3e 54 e4 62 3d
       0.20124307 -0.05002831 0.15077347 0.055393532
0000f0 4a cd 1c 3e 8a 56 d0 ba aa e9 75 be 5b 75 bc 3e
       0.15312687 -0.0015894931 -0.24014917 0.36808285
000100 59 7b 0c be 25 08 9b be 16 e1 bd bd b3 7c 85 be
       -0.13718928 -0.3027965 -0.09271447 -0.260717
000110 12 51 0f 3e e0 ee 27 be 51 1e 1f be c0 dc 11 3e
       0.1399577 -0.16399717 -0.15538909 0.14244366
000120 d9 a2 6e be 1b 32 9f bd e0 d6 4b be 07 6d b7 3e
       -0.23304309 -0.07773229 -0.19906187 0.3582537
000130 fb 43 03 3e d5 71 08 3d 3c d0 04 be 37 37 ca bd
       0.12818901 0.033311684 -0.1297006 -0.09873813
000140 4c c8 ea bb 00 8b d0 bc 8d 16 63 3e 90 27 0a be
       -0.0071649905 -0.025456905 0.22176571 -0.13491654
000150 83 9d 82 be 6a 55 0a be 3d a0 56 bd 6f a7 e9 3d
       -0.25510797 -0.13509145 -0.05239891 0.114088885
000160 a8 af 77 3e 50 12 3c 3d e0 af c8 3c 4d 05 3a 3e
       0.24188101 0.0459159 0.024497926 0.18166085
000170 af b8 fb bd 7e 7c 15 3e 51 50 a4 bd 0e f8 2b 3d
       -0.12291085 0.14598271 -0.08023132 0.04198461
000180 0a 3b 84 3d fb 9e 98 3d 8a 53 8c 3e 22 fa 5d be
       0.06456573 0.07452198 0.27407485 -0.2167745
000190 94 a6 9b 3d 27 30 95 3e fd 16 7b bd 70 84 ab bd
       0.07600132 0.291383 -0.06130122 -0.0837487
0001a0 72 3e fc bd 83 db b9 3e 9f ae 11 be f6 ff 74 3e
       -0.12316598 0.36300287 -0.14226769 0.23925766
0001b0 d4 0b 79 be a0 a3 65 3e 8b f1 b6 3e 26 61 6b be
       -0.24320918 0.22425699 0.35731158 -0.22986278
0001c0 68 9a c4 bd 6b 86 b4 3d f1 fa fd 3c e6 4b 98 3d
       -0.09599763 0.08814701 0.031003447 0.074363515
0001d0 3a c6 f3 bd 59 23 33 3c b7 19 3c 3e 7c b7 24 be
       -0.11903043 0.0109337205 0.18369184 -0.16085619
0001e0 11 37 29 3e b6 88 c0 bb f9 29 71 be 33 a5 94 3e
       0.16524912 -0.005875672 -0.23551168 0.29032287
0001f0 6a 4a 5c 3e 9c 3a 9a 3e 33 71 12 3e fd 43 97 be
       0.21512762 0.3012284 0.14300995 -0.29544058
000200 80 ae 38 be 7f 8d 23 3b 3e 0f 91 be 10 c9 c4 3e
       -0.18035316 0.0024956164 -0.2833194 0.3843465
000210 4d c4 9a bd be 96 be 3d b0 6c 92 3e fa 7f e3 bc
       -0.07556973 0.093060955 0.28598547 -0.027770985
000220 e6 2f e6 3b 27 a2 20 3e 80 7c 71 3e 35 2a 4a bc
       0.007024753 0.15686856 0.23582649 -0.0123391645
000230 19 2c 30 3e 13 74 0b 3e a8 26 22 be 84 7a 91 be
       0.17204322 0.13618498 -0.15835059 -0.28413785
000240 e8 89 83 3e 3d 0f 25 3e fd 40 2c be 42 7b 84 3e
       0.25691152 0.16119094 -0.16821666 0.25875288
000250 d1 c4 a0 3e 79 26 72 be 7c c8 cb bd bb d8 1d be
       0.3140016 -0.23647489 -0.09950349 -0.15414707
000260 b7 6e f8 bc 96 56 cb 3e 36 22 b9 bd 4e f9 5c be
       -0.03032623 0.39714497 -0.09039728 -0.21579477
000270 30 9f 3e 3c 5f cd a5 3d 72 a9 17 3d 4d 01 19 bc
       0.011634633 0.08095812 0.03702683 -0.009338689
000280 69 ed bd 3e 35 3f 80 3e 01 eb 00 bd 95 b6 c7 3e
       0.37095192 0.25048223 -0.031474117 0.39006487
000290 1b 85 d7 3c c0 b2 04 be 0c 88 3c 3d f5 cc 9c 3c
       0.026308587 -0.12958813 0.046028182 0.0191407
0002a0 b4 a3 6d be 70 39 13 3d ac 0a 22 3e 8f 19 1e 3e
       -0.23206979 0.03594345 0.15824383 0.15439437
0002b0 ed 3d c5 bd c8 fd 36 3c b1 66 db 3d 3e a0 49 3e
       -0.09630952 0.011168905 0.10712946 0.19690034
0002c0 95 5d 8f be c9 d8 9b 3e c6 87 31 be f3 d1 ed 3d
       -0.28001085 0.3043883 -0.1733695 0.1161231
0002d0 f1 31 e6 3d 05 b7 b3 3d b2 0b c3 3d 2e 6c 6d be
       0.11239994 0.087751426 0.09523715 -0.23185799
0002e0 87 d8 54 3e eb 5a 6b 3e 3c 6c 02 be 49 a2 4b 3e
       0.20785724 0.22983901 -0.127366 0.19886126
0002f0 df 07 d6 3d 1c 95 e8 bd 7f 33 25 bd ff 7f a9 3e
       0.1045072 -0.11356565 -0.040332314 0.33105466
000300 de 07 40 be fa 03 82 3c 73 54 3b bd 32 5f b1 3e
       -0.18753001 0.015871037 -0.045734834 0.3464294
000310 70 b7 68 bd a8 3d 39 3d 6c fb 81 bd 09 f3 45 be
       -0.056815565 0.045224816 -0.06346783 -0.19330992
000320 6c 54 9e 3d d3 75 87 3e 6a 35 9d bd 8c 68 3b bd
       0.07730946 0.2645708 -0.076762035 -0.045754
000330 0c 50 97 bd 98 b3 a5 bd a9 52 04 be 57 e9 03 be
       -0.073883146 -0.080908954 -0.12922157 -0.12881981
000340 6f 0c 10 be 9c 05 07 be 67 0e 34 3e 5a 3a ef bd
       -0.14067243 -0.13185734 0.17583619 -0.116810516
000350 38 51 7c bd 3e 41 31 bb a6 f9 a7 3e d9 5f 28 3e
       -0.061600894 -0.0027046944 0.32807654 0.16442813
000360 26 f5 84 bd 86 4d a5 bd 0c 3b 74 3e a3 87 25 be
       -0.06492071 -0.08071427 0.2385065 -0.16165023
000370 39 0d 92 3d 11 28 a4 3e 3a 4c 13 3e 80 7e b6 3e
       0.07131428 0.32061818 0.14384547 0.35643387
000380 0e 6c 4a be 8d 1d 75 3e d7 6b 51 3e 0c 6f 8b 3d
       -0.19767782 0.23937054 0.20451294 0.0680829
000390 56 72 05 3e c6 a0 a1 3e 4e 2e 31 3e 9f 93 37 be
       0.13031897 0.31567973 0.1730282 -0.17927407
0003a0 a9 57 2c 3e a8 cb 2f be 4a 14 23 bd a2 f6 18 be
       0.16830315 -0.17167532 -0.03981427 -0.14937833
0003b0 d9 c8 52 3c 72 88 de bd cd 98 a8 3d 5f 42 14 ba
       0.012865269 -0.10865869 0.082322694 -0.0005655642
0003c0 02 33 f0 bd 2c 68 3b 3e 23 27 6f 3e 59 65 9b be
       -0.11728479 0.18301457 0.23354773 -0.3035076
0003d0 c1 15 7e be 60 31 84 3e 30 5f 25 3e de b9 b5 be
       -0.24812986 0.2581892 0.16149592 -0.35493368
0003e0 36 86 94 3e 0f b4 2e be a3 2a d0 bd f4 dd bd 3e
       0.29008645 -0.17060874 -0.10164382 0.370834
0003f0 9b 25 90 3e fa 05 5e 3e 6d 6d 19 3e fa ec 18 3e
       0.2815369 0.21681967 0.14983149 0.1493415

linear2.weight f4 [3, 256]
000000 8e 66 95 bd 3c e8 23 bc 20 3c 77 bd 63 8b 9f 3d
       -0.072949514 -0.010004099 -0.060360074 0.07790258
000010 21 04 8b 3c 75 d1 9c 3b 3f 63 b0 3d 79 a5 17 be
       0.016969742 0.0047857114 0.0861268 -0.14809217
000020 a8 cb 28 bd 70 bf ab bd e3 f2 a3 bd 3d 98 37 bd
       -0.041209847 -0.08386123 -0.08005311 -0.04482292
000030 d5 87 72 bd df 12 73 3d 91 b8 a7 bd c2 98 ac bc
       -0.05921157 0.05934417 -0.081895 -0.021068934
000040 28 76 5c be 8e 26 60 3c da 09 5b bb cc c9 8f bb
       -0.21529448 0.013681067 -0.003342262 -0.0043880697
000050 0b 78 20 bc e9 68 cf bb d5 94 be 3c 4a 55 3f bd
       -0.0097942455 -0.006329645 0.023264328 -0.046712197
000060 56 20 ce bd c5 21 20 bc fc ed 9f bd 16 6b 14 be
       -0.10064761 -0.009773676 -0.07809064 -0.14493975
000070 ea 2f e1 bc 76 e7 db bd cf 0f 83 3c 2f 29 fb 3c
       -0.027488668 -0.10737507 0.015998749 0.030659286
000080 0c ea 2a 3d da a7 b8 bd 1c 2f 49 bd 7c 6c 6c 3d
       0.04172711 -0.0901639 -0.049117193 0.057720646
000090 52 af f5 bd ba ed 17 bd 6e b6 c9 bc 62 ce 69 bd
       -0.1199633 -0.037091948 -0.024623122 -0.057081588
0000a0 ae 0a f6 bc 13 7f 6a bd 01 29 9a 3c b6 64 59 bd
       -0.03003439 -0.057250094 0.01881838 -0.05307456
0000b0 1b 70 89 bd ab ad 6a bd 65 cf e9 bd 51 be ec bd
       -0.067108355 -0.05729453 -0.114165105 -0.115597375
0000c0 80 eb a1 bd a7 91 a7 3c bb 99 a2 bd d2 31 e5 bc
       -0.07906246 0.020455195 -0.07939478 -0.027977858
0000d0 c3 82 6e bb d3 ca c0 bd 9c 96 2c 3c 25 ae 22 bd
       -0.0036393858 -0.09413686 0.010533955 -0.03971686
0000e0 22 53 a1 bc 50 91 6e bd fd ad 89 bc fe 25 1a bd
       -0.019692961 -0.05824405 -0.016806597 -0.03763389
0000f0 05 be 25 3d 3e bb a0 bb 17 ec a8 bd 3a 72 55 be
       0.04046442 -0.0049051335 -0.082481556 -0.20844355
000100 07 09 80 bd bf cb 36 bd f2 de 81 bd 24 7e d2 bd
       -0.06251722 -0.0446279 -0.063413516 -0.10277966
000110 a5 be 8c bd bb 97 0f bd 06 a1 83 bb 5c 42 b3 3b
       -0.068723 -0.03505681 -0.004016998 0.005470557
000120 24 3b ba 3d b9 89 85 3c ec 47 fb bd 62 52 46 bd
       0.090933114 0.016301023 -0.122695774 -0.04841841
000130 e2 19 3b bd 83 86 3d bb 31 b5 81 bb f3 8e 8f bc
       -0.04567898 -0.0028919287 -0.0039583673 -0.017524218
000140 0c 00 88 b8 84 0b 48 be 55 8c 6d 3c 51 0c 84 bd
       -6.484994e-05 -0.19535643 0.01449879 -0.06447662
000150 ae 7b d8 bd 9c 09 c9 3c 57 92 bc bd 13 40 88 bd
       -0.10570465 0.024540715 -0.092075996 -0.06652846
000160 79 95 80 bd 48 d5 97 bc b6 23 6a bd 2c 8e 6c bd
       -0.0627851 -0.018534318 -0.057162963 -0.057752773
000170 a8 fe 49 3c ef 81 c3 bd 6d 4e 7e bd d1 73 19 bd
       0.012328781 -0.09546267 -0.06208651 -0.037463967
000180 d2 98 0d bd 08 98 9a bd c5 0a ce 3c df eb c7 bd
       -0.03456957 -0.07548529 0.02515162 -0.09761786
000190 a0 5b e9 bd c1 ae a3 bd 8c a5 83 bc 90 55 82 bd
       -0.11394429 -0.07992316 -0.01607015 -0.06363976
0001a0 e3 2d 59 bd 1e 65 97 bc 17 a2 06 bd 2a b6 3e 3d
       -0.053022277 -0.018480834 -0.032869425 0.046560444
0001b0 f6 f8 22 bd 41 69 b0 bc 73 ee e0 bc 03 d3 79 bd
       -0.03978821 -0.021534564 -0.027457451 -0.060992252
0001c0 e3 aa fa bc 7f f8 b8 bc 06 5c 86 bd 39 de d5 bd
       -0.030599063 -0.02257943 -0.06560521 -0.10442776
0001d0 44 63 24 3e 4a 7c ef bd ba 8d b3 bd de 40 a0 bd
       0.16053492 -0.11693628 -0.087672666 -0.078248724
0001e0 c3 a6 f5 bb fd 73 d0 bb 5a 34 63 bd 5b ea bb bb
       -0.007496686 -0.006361483 -0.05546985 -0.0057347245
0001f0 b8 9f 3d bd 92 7e 9b bd 83 f6 a0 bd 15 7b 0e 3d
       -0.046294898 -0.07592501 -0.078595184 0.03478535
000200 0e ce c3 bc d6 a3 a7 3c 6b c1 4e 3c 5f eb 67 bd
       -0.023901965 0.020463865 0.012619357 -0.05662095
000210 ac 09 21 be 40 12 4d bd f3 0a d6 3a 08 ff ce 3c
       -0.15726346 -0.050066233 0.0016330167 0.025268093
000220 1b 18 4c bc 9b 13 8f bd d8 9d e2 bd fd be 18 bd
       -0.012456919 -0.06986161 -0.110652626 -0.037291516
000230 3d fc a3 bd 5c eb cf bd 66 88 96 bd 68 6d 5f bd
       -0.08007095 -0.10152313 -0.07350235 -0.054547697
000240 ba 8e 31 3d 41 5c e2 bd 50 ad d3 3d 61 f8 64 3d
       0.043349005 -0.11052752 0.10335791 0.055900935
000250 6c 3f 56 bc a7 95 8a bd 2f 7a 04 bd a6 b0 35 3d
       -0.013076644 -0.06766825 -0.032343086 0.04435792
000260 16 43 d5 bd 37 37 b1 bd 0a 22 cc 3d e5 32 d8 3b
       -0.10413186 -0.086531095 0.0996743 0.006597864
000270 cf 67 ca 3c f5 bf ba 3c 48 4c 89 bd dd b7 58 bd
       0.024707703 0.02279661 -0.067040026 -0.05290972
000280 90 19 79 bc bb 73 44 3c 68 ff 29 3d cc 18 a3 bd
       -0.0152038485 0.011990483 0.04150334 -0.07963714
000290 65 2c 32 be ee c4 bb bd 2f 45 51 ba 81 2d 5e bd
       -0.17399748 -0.09168421 -0.00079830264 -0.054242615
0002a0 61 9c 14 3d 0f 4b aa 3d 72 4d 8c bd b1 1c 57 bd
       0.036281947 0.083150975 -0.06850709 -0.052517597
0002b0 75 fc c5 3c b0 9d 42 bc 54 50 bc bd fa fa c2 3c
       0.024168232 -0.011878416 -0.09195009 0.023801316
0002c0 a1 e5 1f 3d a7 a1 aa bd 05 73 61 3c 4a f5 9d bd
       0.03903735 -0.08331614 0.013760333 -0.07712801
0002d0 63 fd c2 bd a0 2a 2c 3c d9 55 c2 bd 8d e2 c3 bd
       -0.09520986 0.0105082095 -0.094890304 -0.095646955
0002e0 0b a1 1e bd bb 26 94 bd 62 04 d7 bd 9a 21 a2 bd
       -0.0387278 -0.0723395 -0.10498883 -0.07916565
0002f0 8e ad 17 be a2 73 0b bd 5c 9a 23 be 38 b7 32 bd
       -0.148123 -0.034045823 -0.15976852 -0.043631762
000300 69 04 3d 3d 92 60 01 bd 97 f7 c8 bc f7 52 6f bd
       0.046146784 -0.031586237 -0.024532123 -0.05842873
000310 5c ca 87 bd 22 2d 11 bd c0 2c 4b 38 72 e9 97 3b
       -0.06630394 -0.035443433 4.844065e-05 0.004635983
000320 38 d7 a3 bd 52 0b c9 bd 3d a0 17 bd eb 31 f3 bd
       -0.08000034 -0.09816612 -0.03701805 -0.118747555
000330 c8 f4 47 be e0 f5 b9 bd ad 89 c9 bc e1 a3 7f bc
       -0.1952697 -0.090801 -0.024601782 -0.015603037
000340 64 17 20 3c 64 5c a2 3a 9a a9 45 be 28 ac 81 bd
       0.009771202 0.0012387154 -0.19302979 -0.06331664
000350 e5 75 a5 bb fe fa d4 3b 70 e6 d7 bc c0 4d cf bc
       -0.0050494545 0.006499647 -0.026354998 -0.025305629
000360 fc 0f 8b bd 28 76 a1 bc 89 5d bd bd a4 35 70 bc
       -0.06790158 -0.019709662 -0.09246356 -0.014661226
000370 38 05 07 bd 02 31 52 3a 00 69 ba 3c 56 5f 5d bd
       -0.03296396 0.0008018167 0.022755146 -0.054045998
000380 aa 23 1e bd 12 4d 3a bc 15 46 ac bc 6c 3d 19 bd
       -0.03860823 -0.011370914 -0.021029511 -0.037412092
000390 b7 d6 38 be 36 58 79 bc 9c 42 79 3c 1a 38 a2 3d
       -0.18050657 -0.015218785 0.015213635 0.07920857
0003a0 4f cc c6 bd d0 b9 ec bd 79 85 bd bd 7d ae ac bd
       -0.097069375 -0.115588784 -0.092539735 -0.084317185
0003b0 e6 29 44 be 12 50 8f bc 91 4f 23 bd 13 c8 af bd
       -0.19156608 -0.017494235 -0.039870802 -0.08583083
0003c0 b6 ee 65 3d 8c 4f e1 bb d2 ab 00 3d a9 b2 f3 3c
       0.056135856 -0.006875938 0.03141386 0.029748278
0003d0 c4 96 29 bd 03 9b 17 bd 9f ed a0 bd a2 24 80 3c
       -0.041403547 -0.037013065 -0.078578226 0.015642468
0003e0 37 d9 8f 3d fb d1 90 bc a8 9d 67 bd f7 b2 b4 bd
       0.07023852 -0.017678251 -0.056546837 -0.08823197
0003f0 7d 24 86 bd 83 36 ff bc 44 42 c3 bd fb 25 d5 bd
       -0.06549928 -0.031153923 -0.095341235 -0.10407635

linear2.bias f4 [3]
000000 d4 b6 37 3c 23 e2 e1 bd 82 b3 c6 bc
       0.011213023 -0.1102946 -0.024255518
